…
WARNING:tensorflow:From C:\Users\dhanendra\AppData\Local\Programs\Python\Python310\lib\site-packages\keras\src\layers\pooling\max_pooling2d.py:161: The name tf.nn.max_pool is deprecated. Please use tf.nn.max_pool2d instead.

2023-12-26 12:25:07.070962: I tensorflow/core/platform/cpu_feature_guard.cc:182] This TensorFlow binary is optimized to use available CPU instructions in performance-critical operations.
To enable the following instructions: SSE SSE2 SSE3 SSE4.1 SSE4.2 AVX2 FMA, in other operations, rebuild TensorFlow with the appropriate compiler flags.
Model: "sequential"
_________________________________________________________________
 Layer (type)                Output Shape              Param #
=================================================================
 conv2d (Conv2D)             (None, 148, 148, 16)      448

 max_pooling2d (MaxPooling2  (None, 74, 74, 16)        0
 D)

 conv2d_1 (Conv2D)           (None, 72, 72, 32)        4640

 max_pooling2d_1 (MaxPoolin  (None, 36, 36, 32)        0
 g2D)

 conv2d_2 (Conv2D)           (None, 34, 34, 64)        18496

 max_pooling2d_2 (MaxPoolin  (None, 17, 17, 64)        0
 g2D)

 flatten (Flatten)           (None, 18496)             0

 dense (Dense)               (None, 512)               9470464

 dense_1 (Dense)             (None, 1)                 513

=================================================================
Total params: 9494561 (36.22 MB)
Trainable params: 9494561 (36.22 MB)
Non-trainable params: 0 (0.00 Byte)
_________________________________________________________________
WARNING:absl:`lr` is deprecated in Keras optimizer, please use `learning_rate` or use the legacy optimizer, e.g.,tf.keras.optimizers.legacy.RMSprop.
Epoch 1/20
WARNING:tensorflow:From C:\Users\dhanendra\AppData\Local\Programs\Python\Python310\lib\site-packages\keras\src\utils\tf_utils.py:492: The name tf.ragged.RaggedTensorValue is deprecated. Please use tf.compat.v1.ragged.RaggedTensorValue instead.
…
